Model: "sequential"
┏━━━━━━━━━━━━━━━━━━━━━━━━━━━━━━━━━━━┳━━━━━━━━━━━━━━━━━━━━━━━━━━┳━━━━━━━━━━━━━━━┓
┃ Layer (type)                      ┃ Output Shape             ┃       Param # ┃
┡━━━━━━━━━━━━━━━━━━━━━━━━━━━━━━━━━━━╇━━━━━━━━━━━━━━━━━━━━━━━━━━╇━━━━━━━━━━━━━━━┩
│ conv2d (Conv2D)                   │ (None, 126, 126, 32)     │           896 │
├───────────────────────────────────┼──────────────────────────┼───────────────┤
│ batch_normalization               │ (None, 126, 126, 32)     │           128 │
│ (BatchNormalization)              │                          │               │
├───────────────────────────────────┼──────────────────────────┼───────────────┤
│ max_pooling2d (MaxPooling2D)      │ (None, 63, 63, 32)       │             0 │
├───────────────────────────────────┼──────────────────────────┼───────────────┤
│ conv2d_1 (Conv2D)                 │ (None, 61, 61, 64)       │        18,496 │
├───────────────────────────────────┼──────────────────────────┼───────────────┤
│ batch_normalization_1             │ (None, 61, 61, 64)       │           256 │
│ (BatchNormalization)              │                          │               │
├───────────────────────────────────┼──────────────────────────┼───────────────┤
│ max_pooling2d_1 (MaxPooling2D)    │ (None, 30, 30, 64)       │             0 │
├───────────────────────────────────┼──────────────────────────┼───────────────┤
│ conv2d_2 (Conv2D)                 │ (None, 28, 28, 64)       │        36,928 │
├───────────────────────────────────┼──────────────────────────┼───────────────┤
│ batch_normalization_2             │ (None, 28, 28, 64)       │           256 │
│ (BatchNormalization)              │                          │               │
├───────────────────────────────────┼──────────────────────────┼───────────────┤
│ max_pooling2d_2 (MaxPooling2D)    │ (None, 14, 14, 64)       │             0 │
├───────────────────────────────────┼──────────────────────────┼───────────────┤
│ flatten (Flatten)                 │ (None, 12544)            │             0 │
├───────────────────────────────────┼──────────────────────────┼───────────────┤
│ dense (Dense)                     │ (None, 64)               │       802,880 │
├───────────────────────────────────┼──────────────────────────┼───────────────┤
│ dropout (Dropout)                 │ (None, 64)               │             0 │
├───────────────────────────────────┼──────────────────────────┼───────────────┤
│ dense_1 (Dense)                   │ (None, 32)               │         2,080 │
├───────────────────────────────────┼──────────────────────────┼───────────────┤
│ dropout_1 (Dropout)               │ (None, 32)               │             0 │
├───────────────────────────────────┼──────────────────────────┼───────────────┤
│ dense_2 (Dense)                   │ (None, 1)                │            33 │
└───────────────────────────────────┴──────────────────────────┴───────────────┘
 Total params: 2,585,221 (9.86 MB)
 Trainable params: 861,633 (3.29 MB)
 Non-trainable params: 320 (1.25 KB)
 Optimizer params: 1,723,268 (6.57 MB)

{'accuracy': [0.6109080910682678, 0.7017195224761963, 0.760881245136261, 0.7951638698577881, 0.8142396807670593, 0.8351423740386963, 0.8432025909423828, 0.855400323867
…
